…
=True, gpu_mode=True, gpus=2, lr=0.0001, model_type='RBPN', nEpochs=150, nFrames=7, other_dataset=True, patch_size=32, prefix='F7', pretrained=False, pretrained_sr='3x_dl10VDBPNF7_epoch_84.pth', residual=False, save_folder='weights/', seed=123, snapshots=10, start_epoch=1, testBatchSize=5, threads=8, upscale_factor=4)
21-02-08 15:03:56.944 - INFO: ===> Loading datasets
21-02-08 15:03:56.994 - INFO: ===> Building model RBPN
21-02-08 15:03:57.552 - INFO: ---------- Networks architecture -------------
21-02-08 15:03:57.555 - INFO: DataParallel(
  (module): Net(
    (feat0): ConvBlock(
      (conv): Conv2d(3, 256, kernel_size=(3, 3), stride=(1, 1), padding=(1, 1))
      (act): PReLU(num_parameters=1)
    )
    (feat1): ConvBlock(
      (conv): Conv2d(8, 256, kernel_size=(3, 3), stride=(1, 1), padding=(1, 1))
      (act): PReLU(num_parameters=1)
    )
    (DBPN): Net(
      (feat1): ConvBlock(
        (conv): Conv2d(256, 64, kernel_size=(1, 1), stride=(1, 1))
        (act): PReLU(num_parameters=1)
      )
      (up1): UpBlock(
        (up_conv1): DeconvBlock(
          (deconv): ConvTranspose2d(64, 64, kernel_size=(8, 8), stride=(4, 4), padding=(2, 2))
          (act): PReLU(num_parameters=1)
        )
        (up_conv2): ConvBlock(
          (conv): Conv2d(64, 64, kernel_size=(8, 8), stride=(4, 4), padding=(2, 2))
          (act): PReLU(num_parameters=1)
        )
        (up_conv3): DeconvBlock(
          (deconv): ConvTranspose2d(64, 64, kernel_size=(8, 8), stride=(4, 4), padding=(2, 2))
          (act): PReLU(num_parameters=1)
        )
      )
      (down1): DownBlock(
        (down_conv1): ConvBlock(
          (conv): Conv2d(64, 64, kernel_size=(8, 8), stride=(4, 4), padding=(2, 2))
          (act): PReLU(num_parameters=1)
        )
        (down_conv2): DeconvBlock(
          (deconv): ConvTranspose2d(64, 64, kernel_size=(8, 8), stride=(4, 4), padding=(2, 2))
          (act): PReLU(num_parameters=1)
        )
        (down_conv3): ConvBlock(
          (conv): Conv2d(64, 64, kernel_size=(8, 8), stride=(4, 4), padding=(2, 2))
          (act): PReLU(num_parameters=1)
        )
      )
      (up2): UpBlock(
        (up_conv1): DeconvBlock(
          (deconv): ConvTranspose2d(64, 64, kernel_size=(8, 8), stride=(4, 4), padding=(2, 2))
          (act): PReLU(num_parameters=1)
        )
        (up_conv2): ConvBlock(
          (conv): Conv2d(64, 64, kernel_size=(8, 8), stride=(4, 4), padding=(2, 2))
          (act): PReLU(num_parameters=1)
        )
        (up_conv3): DeconvBlock(
          (deconv): ConvTranspose2d(64, 64, kernel_size=(8, 8), stride=(4, 4), padding=(2, 2))
          (act): PReLU(num_parameters=1)
        )
      )
      (down2): DownBlock(
        (down_conv1): ConvBlock(
          (conv): Conv2d(64, 64, kernel_size=(8, 8), stride=(4, 4), padding=(2, 2))
          (act): PReLU(num_parameters=1)
        )
        (down_conv2): DeconvBlock(
          (deconv): ConvTranspose2d(64, 64, kernel_size=(8, 8), stride=(4, 4), padding=(2, 2))
          (act): PReLU(num_parameters=1)
        )
        (down_conv3): ConvBlock(
          (conv): Conv2d(64, 64, kernel_size=(8, 8), stride=(4, 4), padding=(2, 2))
          (act): PReLU(num_parameters=1)
        )
      )
      (up3): UpBlock(
        (up_conv1): DeconvBlock(
          (deconv): ConvTranspose2d(64, 64, kernel_size=(8, 8), stride=(4, 4), padding=(2, 2))
          (act): PReLU(num_parameters=1)
        )
        (up_conv2): ConvBlock(
          (conv): Conv2d(64, 64, kernel_size=(8, 8), stride=(4, 4), padding=(2, 2))
          (act): PReLU(num_parameters=1)
        )
        (up_conv3): DeconvBlock(
          (deconv): ConvTranspose2d(64, 64, kernel_size=(8, 8), stride=(4, 4), padding=(2, 2))
          (act): PReLU(num_parameters=1)
        )
      )
      (output): ConvBlock(
        (conv): Conv2d(192, 64, kernel_size=(1, 1), stride=(1, 1))
      )
    )
    (res_feat1): Sequential(
      (0): ResnetBlock(
        (conv1): Conv2d(256, 256, kernel_size=(3, 3), stride=(1, 1), padding=(1, 1))
        (conv2): Conv2d(256, 256, kernel_size=(3, 3), stride=(1, 1), padding=(1, 1))
        (act): PReLU(num_parameters=1)
      )
      (1): ResnetBlock(
        (conv1): Conv2d(256, 256, kernel_size=(3, 3), stride=(1, 1), padding=(1, 1))
        (conv2): Conv2d(256, 256, kernel_size=(3, 3), stride=(1, 1), padding=(1, 1))
        (act): PReLU(num_parameters=1)
      )
      (2): ResnetBlock(
        (conv1): Conv2d(256, 256, kernel_size=(3, 3), stride=(1, 1), padding=(1, 1))
        (conv2): Conv2d(256, 256, kernel_size=(3, 3), stride=(1, 1), padding=(1, 1))
        (act): PReLU(num_parameters=1)
      )
      (3): ResnetBlock(
        (conv1): Conv2d(256, 256, kernel_size=(3, 3), stride=(1, 1), padding=(1, 1))
        (conv2): Conv2d(256, 256, kernel_size=(3, 3), stride=(1, 1), padding=(1, 1))
        (act): PReLU(num_parameters=1)
      )
      (4): ResnetBlock(
        (conv1): Conv2d(256, 256, kernel_size=(3, 3), stride=(1, 1), padding=(1, 1))
        (conv2): Conv2d(256, 256, kernel_size=(3, 3), stride=(1, 1), padding=(1, 1))
        (act): PReLU(num_parameters=1)
      )
      (5): DeconvBlock(
        (deconv): ConvTranspose2d(256, 64, kernel_size=(8, 8), stride=(4, 4), padding=(2, 2))
        (act): PReLU(num_parameters=1)
      )
    )
    (res_feat2): Sequential(
      (0): ResnetBlock(
        (conv1): Conv2d(64, 64, kernel_size=(3, 3), stride=(1, 1), padding=(1, 1))
        (conv2): Conv2d(64, 64, kernel_size=(3, 3), stride=(1, 1), padding=(1, 1))
        (act): PReLU(num_parameters=1)
      )
      (1): ResnetBlock(
        (conv1): Conv2d(64, 64, kernel_size=(3, 3), stride=(1, 1), padding=(1, 1))
        (conv2): Conv2d(64, 64, kernel_size=(3, 3), stride=(1, 1), padding=(1, 1))
        (act): PReLU(num_parameters=1)
      )
      (2): ResnetBlock(
        (conv1): Conv2d(64, 64, kernel_size=(3, 3), stride=(1, 1), padding=(1, 1))
        (conv2): Conv2d(64, 64, kernel_size=(3, 3), stride=(1, 1), padding=(1, 1))
        (act): PReLU(num_parameters=1)
      )
      (3): ResnetBlock(
        (conv1): Conv2d(64, 64, kernel_size=(3, 3), stride=(1, 1), padding=(1, 1))
        (conv2): Conv2d(64, 64, kernel_size=(3, 3), stride=(1, 1), padding=(1, 1))
        (act): PReLU(num_parameters=1)
      )
      (4): ResnetBlock(
        (conv1): Conv2d(64, 64, kernel_size=(3, 3), stride=(1, 1), padding=(1, 1))
        (conv2): Conv2d(64, 64, kernel_size=(3, 3), stride=(1, 1), padding=(1, 1))
        (act): PReLU(num_parameters=1)
      )
      (5): ConvBlock(
        (conv): Conv2d(64, 64, kernel_size=(3, 3), stride=(1, 1), padding=(1, 1))
        (act): PReLU(num_parameters=1)
      )
    )
    (res_feat3): Sequential(
      (0): ResnetBlock(
        (conv1): Conv2d(64, 64, kernel_size=(3, 3), stride=(1, 1), padding=(1, 1))
        (conv2): Conv2d(64, 64, kernel_size=(3, 3), stride=(1, 1), padding=(1, 1))
        (act): PReLU(num_parameters=1)
      )
      (1): ResnetBlock(
        (conv1): Conv2d(64, 64, kernel_size=(3, 3), stride=(1, 1), padding=(1, 1))
        (conv2): Conv2d(64, 64, kernel_size=(3, 3), stride=(1, 1), padding=(1, 1))
        (act): PReLU(num_parameters=1)
      )
      (2): ResnetBlock(
        (conv1): Conv2d(64, 64, kernel_size=(3, 3), stride=(1, 1), padding=(1, 1))
        (conv2): Conv2d(64, 64, kernel_size=(3, 3), stride=(1, 1), padding=(1, 1))
        (act): PReLU(num_parameters=1)
      )
      (3): ResnetBlock(
        (conv1): Conv2d(64, 64, kernel_size=(3, 3), stride=(1, 1), padding=(1, 1))
        (conv2): Conv2d(64, 64, kernel_size=(3, 3), stride=(1, 1), padding=(1, 1))
        (act): PReLU(num_parameters=1)
      )
      (4): ResnetBlock(
        (conv1): Conv2d(64, 64, kernel_size=(3, 3), stride=(1, 1), padding=(1, 1))
        (conv2): Conv2d(64, 64, kernel_size=(3, 3), stride=(1, 1), padding=(1, 1))
        (act): PReLU(num_parameters=1)
      )
      (5): ConvBlock(
        (conv): Conv2d(64, 256, kernel_size=(8, 8), stride=(4, 4), padding=(2, 2))
        (act): PReLU(num_parameters=1)
      )
    )
    (output): ConvBlock(
      (conv): Conv2d(384, 3, kernel_size=(3, 3), stride=(1, 1), padding=(1, 1))
    )
  )
)
21-02-08 15:03:57.558 - INFO: Total number of parameters: 12771943
21-02-08 15:03:57.558 - INFO: ----------------------------------------------
21-02-08 15:37:58.457 - INFO: ===> Epoch 1 Complete: Avg. Loss: 270.0667
21-02-08 16:04:42.064 - INFO: ===> Epoch 2 Complete: Avg. Loss: 0.4683
21-02-08 16:31:19.857 - INFO: ===> Epoch 3 Complete: Avg. Loss: 0.1597
…
